…
              "version_major": 2,
              "version_minor": 0,
              "model_id": "460a23fedd7f4872aab4362cde014dbc"
            }
          },
          "metadata": {}
        },
        {
          "output_type": "execute_result",
          "data": {
            "text/plain": [
              "LlavaNextForConditionalGeneration(\n",
              "  (model): LlavaNextModel(\n",
              "    (vision_tower): CLIPVisionModel(\n",
              "      (vision_model): CLIPVisionTransformer(\n",
              "        (embeddings): CLIPVisionEmbeddings(\n",
              "          (patch_embedding): Conv2d(3, 1024, kernel_size=(14, 14), stride=(14, 14), bias=False)\n",
              "          (position_embedding): Embedding(577, 1024)\n",
              "        )\n",
              "        (pre_layrnorm): LayerNorm((1024,), eps=1e-05, elementwise_affine=True)\n",
              "        (encoder): CLIPEncoder(\n",
              "          (layers): ModuleList(\n",
              "            (0-23): 24 x CLIPEncoderLayer(\n",
              "              (self_attn): CLIPAttention(\n",
              "                (k_proj): Linear(in_features=1024, out_features=1024, bias=True)\n",
              "                (v_proj): Linear(in_features=1024, out_features=1024, bias=True)\n",
              "                (q_proj): Linear(in_features=1024, out_features=1024, bias=True)\n",
              "                (out_proj): Linear(in_features=1024, out_features=1024, bias=True)\n",
              "              )\n",
              "              (layer_norm1): LayerNorm((1024,), eps=1e-05, elementwise_affine=True)\n",
              "              (mlp): CLIPMLP(\n",
              "                (activation_fn): QuickGELUActivation()\n",
              "                (fc1): Linear(in_features=1024, out_features=4096, bias=True)\n",
              "                (fc2): Linear(in_features=4096, out_features=1024, bias=True)\n",
              "              )\n",
              "              (layer_norm2): LayerNorm((1024,), eps=1e-05, elementwise_affine=True)\n",
              "            )\n",
              "          )\n",
              "        )\n",
              "        (post_layernorm): LayerNorm((1024,), eps=1e-05, elementwise_affine=True)\n",
              "      )\n",
              "    )\n",
              "    (multi_modal_projector): LlavaNextMultiModalProjector(\n",
              "      (linear_1): Linear(in_features=1024, out_features=4096, bias=True)\n",
              "      (act): GELUActivation()\n",
              "      (linear_2): Linear(in_features=4096, out_features=4096, bias=True)\n",
              "    )\n",
              "    (language_model): MistralModel(\n",
              "      (embed_tokens): Embedding(32064, 4096)\n",
              "      (layers): ModuleList(\n",
              "        (0-31): 32 x MistralDecoderLayer(\n",
              "          (self_attn): MistralAttention(\n",
              "            (q_proj): Linear(in_features=4096, out_features=4096, bias=False)\n",
              "            (k_proj): Linear(in_features=4096, out_features=1024, bias=False)\n",
              "            (v_proj): Linear(in_features=4096, out_features=1024, bias=False)\n",
              "            (o_proj): Linear(in_features=4096, out_features=4096, bias=False)\n",
              "          )\n",
              "          (mlp): MistralMLP(\n",
              "            (gate_proj): Linear(in_features=4096, out_features=14336, bias=False)\n",
              "            (up_proj): Linear(in_features=4096, out_features=14336, bias=False)\n",
              "            (down_proj): Linear(in_features=14336, out_features=4096, bias=False)\n",
              "            (act_fn): SiLUActivation()\n",
              "          )\n",
              "          (input_layernorm): MistralRMSNorm((4096,), eps=1e-05)\n",
              "          (post_attention_layernorm): MistralRMSNorm((4096,), eps=1e-05)\n",
              "        )\n",
              "      )\n",
              "      (norm): MistralRMSNorm((4096,), eps=1e-05)\n",
              "      (rotary_emb): MistralRotaryEmbedding()\n",
              "    )\n",
              "  )\n",
              "  (lm_head): Linear(in_features=4096, out_features=32064, bias=False)\n",
              ")"
            ]
          },
          "metadata": {},
          "execution_count": 4
        }
      ]
    },
    {
      "cell_type": "code",
      "source": [
        "dataset = load_dataset(\"derek-thomas/ScienceQA\")\n",
        "test_dataset = dataset['test']"
      ],
      "metadata": {
        "id": "XsCDWrvxwa48"
      },
…
